==================================================================================================================================
Layer (type (var_name))                            Input Shape          Output Shape         Param #              Trainable
==================================================================================================================================
TransformerEncoderLayer (TransformerEncoderLayer)  [1, 197, 768]        [1, 197, 768]        --                   True
├─LayerNorm (norm1)                                [1, 197, 768]        [1, 197, 768]        1,536                True
├─MultiheadAttention (self_attn)                   [1, 197, 768]        [1, 197, 768]        2,362,368            True
├─Dropout (dropout1)                               [1, 197, 768]        [1, 197, 768]        --                   --
├─LayerNorm (norm2)                                [1, 197, 768]        [1, 197, 768]        1,536                True
├─Linear (linear1)                                 [1, 197, 768]        [1, 197, 3072]       2,362,368            True
├─Dropout (dropout)                                [1, 197, 3072]       [1, 197, 3072]       --                   --
├─Linear (linear2)                                 [1, 197, 3072]       [1, 197, 768]        2,360,064            True
├─Dropout (dropout2)                               [1, 197, 768]        [1, 197, 768]        --                   --
==================================================================================================================================
Total params: 7,087,872
Trainable params: 7,087,872
Non-trainable params: 0
Total mult-adds (Units.MEGABYTES): 4.73
==================================================================================================================================
Input size (MB): 0.61
…
